models/LSTM/LSTM40.pt (torch, 4319 bytes, 4 tensors)

weight_ih_l0 f4 [16, 25]
000000 0e 12 9d be 0c a0 18 3e 88 72 f8 3d b8 90 d9 3e
       -0.30677837 0.14904803 0.1213122 0.42493224
000010 a2 e5 8f be 38 31 8a be f0 46 a9 bd 7c 18 fe be
       -0.28104883 -0.26990676 -0.082654834 -0.49628055
000020 a0 29 59 be 08 0b ca be b4 bc 53 be 50 6a eb be
       -0.21207285 -0.3946154 -0.20677453 -0.45979548
000030 d2 83 9f be c0 d3 ae bc 80 32 3f 3c 30 86 a0 3d
       -0.31155258 -0.021341205 0.011669755 0.07838094
000040 80 2e ef 3e 50 23 8a 3e fe 8b f6 be bc 1e 11 3e
       0.46715164 0.26980066 -0.4815368 0.1417188
000050 18 6f 53 3e 68 34 81 be c6 eb ee 3e b0 f6 ea be
       0.20647848 -0.25235295 0.46664256 -0.45891333
000060 00 cc 52 3c d8 5b 0e be 70 b5 c1 3e c8 05 e6 be
       0.01286602 -0.13902223 0.37833738 -0.44926286
000070 a0 36 f0 3e 88 c5 b1 bd 4a 13 be 3e d8 8e 70 be
       0.46916676 -0.08680254 0.3712409 -0.2349199
000080 5e 0a 9f be 14 ab d1 be 16 e3 99 3e 9e 10 a0 be
       -0.31062597 -0.40950835 0.30056065 -0.31262678
000090 d0 a6 14 3d f8 13 ce 3e 14 8b 47 3e 00 8a 09 3e
       0.036291897 0.4024961 0.19486648 0.13431549
0000a0 24 7d de 3e a8 60 80 3d ec 6e eb be 72 d0 99 be
       0.4345485 0.06268436 -0.45983064 -0.30041844
0000b0 da d4 c8 be 18 19 92 3e 62 98 c5 be 50 5d 4c 3d
       -0.39224893 0.2853477 -0.3859282 0.049893677
0000c0 f0 5c a0 3d e0 1e 14 be 54 fa fe 3e 40 b9 af bc
       0.078302264 -0.14464903 0.4980036 -0.021450639
0000d0 96 fb 8b 3e 58 b1 a2 3e 94 25 2a be 38 7b dc bd
       0.27340382 0.31775928 -0.16615897 -0.107656896
0000e0 6a 22 a4 be d0 dd 57 3d 4c c7 ae 3e a2 9c d0 be
       -0.32057506 0.05270177 0.34136426 -0.407445
0000f0 8e 84 c1 3e c0 f2 a6 bd 98 a2 c9 be 90 5d 93 bd
       0.37796444 -0.0815177 -0.39381862 -0.0719558
000100 30 ae 07 3e 1a 47 eb 3e 00 38 da ba a4 0d dc 3e
       0.13250041 0.45952684 -0.0016648769 0.42979157
000110 0c bc ea be b0 ad 7f 3d 70 7e c4 3e d0 dc 7a 3d
       -0.45846593 0.0624215 0.38377714 0.06124574
000120 8e d5 a5 be 9a 51 b8 be 06 74 c8 be ea a0 a7 3e
       -0.32389492 -0.35999757 -0.3915102 0.32739955
000130 72 ad ec be 80 74 e8 be 24 27 01 be 28 94 4a be
       -0.46226078 -0.45401382 -0.12612587 -0.1978308
000140 8c f6 9b be a0 5c 61 be 08 2c 7c be f8 1a 1b be
       -0.30461538 -0.2200799 -0.24626172 -0.15147007
000150 c8 22 d4 3e 84 69 75 3e 2c cb fb be 68 d0 98 3e
       0.41432786 0.23966032 -0.49178445 0.298465
000160 cc d7 e6 be 58 98 f2 be d8 98 cf 3e bc 81 10 be
       -0.45086515 -0.47381854 0.40546298 -0.1411199
000170 60 12 a1 bc a6 be ae be 16 78 da 3e ba db d5 be
       -0.019662082 -0.34129828 0.42669743 -0.417692
000180 14 c6 c0 be 78 47 3b be b4 20 67 3e d8 5f be 3e
       -0.37651122 -0.18288982 0.22571069 0.37182498
000190 aa c5 9a be 78 36 bf bd c6 5d f0 be d6 bc bc 3e
       -0.3022893 -0.09336561 -0.46946543 0.3686282
0001a0 6c 40 4c be f4 c4 a2 3e c0 86 d4 bd 8c 10 a2 3e
       -0.1994645 0.31790888 -0.10377264 0.3165325
0001b0 32 49 b1 be 30 b9 38 bd 32 10 87 be 08 26 d4 bd
       -0.34626156 -0.045098484 -0.26379544 -0.103588164
0001c0 1c 7c 34 be 70 7b 05 3e f8 d9 69 be 8c 29 d7 be
       -0.17625469 0.13035369 -0.22837055 -0.42023885
0001d0 c4 3b a4 be 86 7b b2 3e 36 2c a0 be 00 43 ea bc
       -0.32076848 0.34859866 -0.3128373 -0.028596401
0001e0 1c 2e 86 3e 84 b7 b2 3e fe 28 8c be f4 07 c2 3e
       0.26207054 0.34905636 -0.27375025 0.37896693
0001f0 24 98 17 3e 30 6a 63 3d 56 1b f3 3e 1c 5c c2 3e
       0.14804131 0.05552119 0.47481793 0.379609
000200 b4 0c 2c 3e 08 bb d2 bd ae a6 ed be e4 16 19 be
       0.16801721 -0.1028958 -0.4641623 -0.14950138
000210 c4 0e c8 3e a0 d4 e8 3d 20 64 a8 3e 28 88 71 be
       0.39073765 0.1136868 0.3288889 -0.23587096
000220 28 54 f5 bd a4 6f ca 3e 54 b7 fe be 8c 31 a1 3e
       -0.11978942 0.395383 -0.49749243 0.31483114
000230 32 75 a7 3e b8 d6 42 be 38 93 a7 be 02 c1 cf 3e
       0.327066 -0.19027221 -0.32729506 0.4057694
000240 b0 0d 9c bd ce 83 81 be 70 5f b3 be 20 63 05 bd
       -0.07619798 -0.25295871 -0.3503375 -0.032565236
000250 a2 6f 88 be 72 ad 96 3e e0 23 53 3e 90 a0 7a 3d
       -0.2664767 0.29429203 0.20619154 0.06118828
000260 e4 32 be be ee 00 ed be ca e3 f6 3e 40 8e 0a bd
       -0.371482 -0.46289772 0.48220664 -0.033827066
000270 8e b3 d7 be 8e 5c cd 3e a4 f2 9d 3e ca 86 bd be
       -0.42129177 0.40109676 0.30849183 -0.37016898
000280 e8 5a 93 3e b0 ec a6 be 32 04 91 3e 18 b4 b1 3e
       0.28780293 -0.32602453 0.28323513 0.34707713
000290 80 f0 80 bb 3a f5 a3 be aa dd cf be 30 19 3c 3e
       -0.00393492 -0.3202303 -0.40598804 0.18368983
0002a0 5e 5e f2 3e 64 df fe be 94 c8 93 3e b8 61 b2 3d
       0.4733762 -0.4977981 0.28863966 0.087100446
0002b0 10 8f 7a be e4 87 41 3e c8 10 bb bd f0 9c 57 be
       -0.24468637 0.18899494 -0.0913406 -0.2105596
0002c0 00 94 32 bc ac f0 d6 3e 28 75 a2 be d4 e3 a1 be
       -0.010899544 0.41980493 -0.31730008 -0.31619132
0002d0 90 75 18 3d 9e ad e1 3e 80 78 bb bb 96 a7 f8 3e
       0.03722149 0.44077772 -0.005721152 0.48565358
0002e0 52 f6 fd 3e 70 3b 89 3d f8 e3 1a 3e 08 52 fe 3e
       0.4960199 0.0670079 0.15126026 0.4967196
0002f0 d8 b2 8f be 34 25 ab 3e 14 3f 0b 3e 50 de 11 bd
       -0.28066134 0.3342682 0.13598281 -0.035612404
000300 80 c6 37 bd f8 6f a7 3e 9a 6a dc 3e b0 51 94 be
       -0.04486704 0.32702613 0.4305008 -0.28968573
000310 14 10 b3 3e 2c ea 43 3e 10 55 a6 be b8 0b b4 bd
       0.34973204 0.19132298 -0.32486773 -0.08791298
000320 16 cf a8 3e 04 97 28 3e 00 93 f2 3c 80 cd 70 be
       0.32970494 0.16463858 0.02961111 -0.23515892
000330 46 72 af be 76 3b cd 3e 04 38 4e be b8 5f 8f 3d
       -0.3426687 0.40084428 -0.20138556 0.07000679
000340 9e 2e be be 80 08 19 bc 30 72 3d 3d 7e b4 f8 3e
       -0.3714494 -0.009340405 0.046251476 0.48575205
000350 38 0a 60 be c0 d7 06 3d 30 14 f5 bd 68 5a d9 3d
       -0.21878898 0.0329206 -0.11966741 0.10612947
000360 a8 df ef 3e 94 a6 52 be d6 9c c0 3e 88 3b e2 3e
       0.46850324 -0.20571357 0.37619656 0.44186044
000370 e8 3f d9 3e 78 fe 29 3e 98 6c 0c be e0 78 6e bd
       0.4243157 0.16600978 -0.137133 -0.058220744
000380 88 b9 89 3e 64 58 66 3e b4 58 d4 be 58 c9 fa bd
       0.26899362 0.22494656 -0.41473925 -0.122454345
000390 e8 c0 2b 3e dc 64 c0 3e 16 3f c7 be 12 4a e0 be
       0.16772807 0.3757695 -0.38915318 -0.4380651
0003a0 60 44 ee bc 86 4f 95 be f2 32 fd be 00 52 61 bb
       -0.029085338 -0.29162234 -0.4945293 -0.0034381151
0003b0 f0 3f e0 3e 28 a3 a3 3e c4 32 9b 3e 40 a7 1b bc
       0.4379878 0.31960416 0.3031217 -0.009500325
0003c0 58 50 ca 3e ec 5e 42 be 80 c6 65 bc 1a dd 95 3e
       0.39514422 -0.18981522 -0.014024377 0.2927025
0003d0 64 d2 d7 3e ca c7 ee be 20 9c 3a 3e d0 c7 b4 bd
       0.42152703 -0.46636802 0.1822362 -0.08827174
0003e0 52 79 c3 be 48 6f 4c be 60 21 a5 be b0 87 a2 3d
       -0.38178498 -0.19964325 -0.32252026 0.079360366
0003f0 a8 3c 8a be b6 c3 d1 3e d0 f1 6e 3d 38 79 c3 3d
       -0.26999402 0.40969628 0.05833608 0.09544605

weight_hh_l0 f4 [16, 4]
000000 50 cb 28 bd ac 60 65 be b0 a7 5d 3e 3a d2 f4 3e
       -0.04120952 -0.22400159 0.21645999 0.4781664
000010 74 0b 16 be 70 ac f9 bd ea 16 90 be 4c 87 3b be
       -0.14652807 -0.12191093 -0.28142482 -0.1831333
000020 14 a9 90 be b0 35 f2 be 46 8c a2 3e c8 a1 81 3e
       -0.28253996 -0.47306585 0.31747645 0.25318742
000030 80 ee 33 3e dc a1 f0 3e 10 95 37 3e 58 2a 27 be
       0.1757145 0.4699849 0.17927957 -0.16324747
000040 98 eb 98 be fc b2 56 be f2 7d af 3e 7e 97 f1 be
       -0.29867244 -0.20966715 0.34275776 -0.47185892
000050 40 99 12 3e ac 10 1d 3e 70 6b 1b 3d 72 49 88 3e
       0.14316273 0.15338391 0.037944257 0.26618534
000060 98 fb b7 3e 58 28 d0 3e fc bf cc 3e 40 cb 28 bd
       0.35934138 0.4065578 0.39990222 -0.04120946
000070 6a a3 b6 3e c0 10 4e 3e 92 51 98 be 8c 67 b1 be
       0.3567155 0.20123577 -0.29749733 -0.34649312
000080 78 6a eb bd 18 55 83 3e c0 52 ce bc 56 7e f9 be
       -0.11494917 0.2565086 -0.025185943 -0.487292
000090 e8 d3 f2 bd b8 a9 14 be fa ab de 3e 58 dc 68 be
       -0.11856824 -0.14517868 0.43490583 -0.22740304
0000a0 a8 49 ff 3e ba 48 d0 3e 08 07 cb 3e a8 e1 50 3e
       0.49860883 0.40680486 0.39653802 0.20398581
0000b0 00 a6 91 3c 90 b8 41 be 86 11 c5 3e 30 e1 96 bd
       0.01777935 -0.18918061 0.38489932 -0.0736717
0000c0 00 70 a3 39 d4 bd 3f be c4 80 b1 3e 24 cb 97 be
       0.0003117323 -0.18724757 0.34668553 -0.29647171
0000d0 92 d9 ed be 40 c7 7f bc 60 47 c1 3d 50 77 18 bd
       -0.46455055 -0.01561147 0.09437442 -0.03722316
0000e0 f6 45 a6 3e d8 a3 71 be bc cc 01 be 50 86 56 3e
       0.3247525 -0.23597658 -0.12675756 0.20949674
0000f0 80 74 e6 3b d0 15 57 3e fe 1c 97 3e f8 68 f9 bd
       0.007032931 0.21004415 0.29514307 -0.12178224

bias_ih_l0 f4 [16]
000000 b4 aa cc be c0 ad ac 3d 20 6f 37 bd 40 2e 16 bd
       -0.39973986 0.08431578 -0.04478371 -0.0366652
000010 28 34 ed 3e d8 de aa be 80 c9 d8 be ba b1 d4 be
       0.46328855 -0.3337314 -0.42341232 -0.41541845
000020 46 1f 89 be 40 c7 e3 be e0 6b 9b 3d 78 67 b8 bd
       -0.26781672 -0.44487953 0.07588935 -0.0900411
000030 30 6d 8a be a4 d0 64 3e 78 c3 7c 3e 28 33 94 bd
       -0.27036428 0.22345215 0.2468394 -0.0723632

bias_hh_l0 f4 [16]
000000 4e 89 f4 3e 4c 43 60 3e c0 55 d0 be e8 0a a1 be
       0.47761005 0.21900672 -0.40690422 -0.31453633
000010 0c 4a df be a4 1f 9d be 4c a4 d7 be 04 fe d4 be
       -0.4361118 -0.30688202 -0.42117536 -0.4160005
000020 d0 88 f6 be 60 fd 59 3d 98 46 c4 3d 80 c7 05 be
       -0.48151255 0.053220153 0.09583777 -0.13064384
000030 da 04 eb 3e 90 cf 19 3d 98 a9 cb be 18 e3 ea 3d
       0.4590214 0.037551463 -0.39777827 0.11469096
