models/LSTM/LSTM1.pt (torch, 4319 bytes, 4 tensors)

weight_ih_l0 f4 [16, 25]
00000000: 60a0 40bd 9223 d93e 181a 9a3e 4822 d43e
00000010: 804e b9bb 9079 d73d dcd9 413e 2499 5f3e
00000020: f827 2f3e 0032 82bd 300d a83e b4bd 71be
00000030: 3067 953d 4889 8f3e 62a8 97be fadd ffbe
00000040: 56d5 e4be 148f 9dbe 60e9 d53e ac1a aa3e
00000050: 183d 00be 0c20 9c3e 98e3 41be e47e 3fbe
00000060: 6467 083e 2eca cdbe e25f ea3e b404 6ebe
00000070: e06c 62bd 2878 b1bd 7894 933e 044d 5c3e
00000080: 5088 efbe 00ac cdbd 80c5 a83b 7823 f7be
00000090: 0020 87be a0aa 603d 3a3b bc3e bcbd e83e
000000a0: f8cf cbbd ac10 e3be 381a 31be 34c5 c7be
000000b0: c2a9 8d3e d8b3 b7bd b80f b83d 0cbf f4be
000000c0: 6064 4bbe d0ca b7bd ecc9 823e d882 fe3e
000000d0: 1c72 fdbe 5c64 a3be 98d8 a1be 50e2 a93d
000000e0: e033 28bd 94c0 d2be 28be 303e 2604 80be
000000f0: 4027 03be 6c44 b4be 0086 d3bb 50d5 22be
00000100: 92d7 fdbe 76d3 fa3e 5447 c33e e0aa 053e
00000110: 1043 45be ce73 d4be f0b2 e3bd 00a9 a5bc
00000120: 604c 813e 20c6 a2bd e260 ea3e 12ec d9be
00000130: 7060 2abe 9661 90be 9460 0a3e c0c3 17bd
00000140: 2ab5 8f3e 3c78 fdbe 70bc a8be 1227 c2be
00000150: 0479 373e e05d 3f3d 264c b3be c269 cabe
00000160: 903a 7dbe bc86 1cbe d211 da3e bcae 9b3e
00000170: 5a65 f4be 0ab6 8a3e 5003 0e3d 5ca0 133e
00000180: aa76 e93e b4b3 a6be 1441 11be 3cd6 8abe
00000190: 2c7e 4e3e 2086 78bd 24e4 2b3e 405d 17be
000001a0: 68ea 8b3d 001f c2bd b0dc 26be 642e 443e
000001b0: 40ac 05bd 80c2 d4bd 24ea 10be e087 5e3d
000001c0: cca8 50be decc d6be dc6d 533e 6698 b8be
000001d0: 780d d53e 004d f3be 86e3 b7be a047 dabd
000001e0: de45 883e 3c30 fbbe 28eb 9d3e 44fe 87be
000001f0: 7806 883e ecba 29be 80e0 ef3e 2067 953d
00000200: 60fa 463e e42c 153e f834 ff3d 60ff dabe
00000210: 8aae 80be a824 edbe 1e14 aa3e c051 1fbe
00000220: 968c a3be d2f0 cdbe 1e97 f7be c426 80be
00000230: d00e 993d b29b d43e c06c b1be fad2 ddbe
00000240: c8cd d03d b05d bf3e c8dd a53e d04e 4d3e
00000250: dc25 a3be a03c eb3d 0cb8 abbe 54a1 a03e
00000260: f483 dabe 0002 633c 88ad 103e e0e3 f13d
00000270: 0877 5bbe 8ca6 24be 1caa bf3e dc3b 1abe
00000280: e4c0 9dbe decf cfbe 9058 b43e 0c13 cdbe
00000290: b0e4 bc3e 0c97 3bbe 30c5 813d 0a82 e43e
000002a0: f205 ddbe 042a 423e 1a5d 95be 60f3 e9bd
000002b0: 981c 263e aada c2be 26ed 8f3e 3a03 cfbe
000002c0: b69d b7be 2c2f 1dbe 6051 41bd e092 c6be
000002d0: f08c e7bd 4cee 71be c022 ec3d 1626 c23e
000002e0: 7a89 d53e a8dd 8a3e a631 c4be d8b8 83bd
000002f0: fe5e f83e 40c8 cdbd 703d 383e 3891 99be
00000300: 0689 b3be 14c3 973e d873 823d d654 c73e
00000310: d8d9 86bd 30ab ec3e 005b 413d 286b d4bd
00000320: 743c 1a3e fc04 123e 0c34 523e 9490 b7be
00000330: 7211 dc3e 007b 9e3e c07b 983c d059 b1bd
00000340: ae53 893e 0afd 83be 2c88 683e 2828 82be
00000350: 38d3 f73d ac05 b2be 6037 ac3c 7675 8f3e
00000360: 0671 a3be 00fd 543d c28b 973e 7c9b 98be
00000370: 248b 56be 00b0 3cbd d45f fb3e 68d2 dcbe
00000380: 3085 e73d 82dc 993e a09b 9d3c 7c9a ebbe
00000390: ac0a d43e 7840 9cbd a05d 3dbe e0a2 21be
000003a0: 1c33 7b3e 0e96 dfbe 04b9 473e 00cf 3bbc
000003b0: c0a1 fbbc e09d eabd 00ab ccbd 0050 383c
000003c0: 9288 db3e d6aa bebe 0469 e3be feef b4be
000003d0: 2c04 92be 9694 e1be 9037 173d 52ec 853e
000003e0: 7e82 b43e 002c 13bc 4097 7dbc 527e c03e
000003f0: f8d5 523e ce72 b93e 82cf f0be 24e4 febe
-0.047027946 0.4240995 0.30098033 0.41432405 -0.00565511 0.10521233 0.18930763 0.21835762
0.1710509 -0.06357193 0.3282256 -0.23607522 0.07295072 0.28034425 -0.29620653 -0.49974042
-0.44694012 -0.30773222 0.41779613 0.33223474 -0.12523305 0.304932 -0.18934476 -0.18700749
0.1332069 -0.40193313 0.45776278 -0.23243982 -0.055279613 -0.08665496 0.2882421 0.21513754
-0.46783686 -0.10042572 0.005150497 -0.48269248 -0.26391602 0.05485022 0.36763936 0.45457256
-0.09951776 -0.44348657 -0.17295158 -0.39017642 0.27668577 -0.08969849 0.08987373 -0.47802007
-0.19862509 -0.0897423 0.2554468 0.497092 -0.4950112 -0.31912506 -0.3161056 0.08295119
-0.041065097 -0.4116255 0.17260039 -0.25003165 -0.12807941 -0.35208452 -0.006455183 -0.15901685
-0.4957853 0.48989457 0.38140357 0.13053465 -0.19263864 -0.41494602 -0.11118114 -0.020222187
0.25253582 -0.079479456 0.4577704 -0.4256292 -0.1663835 -0.28199452 0.13513404 -0.037051916
0.28067905 -0.49505794 -0.32956266 -0.37920433 0.17917258 0.046720386 -0.35019034 -0.39533812
-0.24729371 -0.15285772 0.4259172 0.3040675 -0.47733575 0.2709201 0.034671128 0.14416641
0.45598346 -0.32558978 -0.14184982 -0.27116573 0.20165318 -0.060674787 0.16786247 -0.14781666
0.06831819 -0.09478569 -0.16295123 0.19158322 -0.032634974 -0.103886604 -0.14151818 0.0543288
-0.20376891 -0.41953176 0.20647377 -0.3605377 0.41611838 -0.47519684 -0.35915774 -0.10658193
0.26615804 -0.49060237 0.30843472 -0.26561177 0.26567435 -0.16575211 0.46850967 0.0729506
0.19431448 0.14567906 0.12461275 -0.4277296 -0.25133163 -0.4631703 0.33218473 -0.15558529
-0.31943196 -0.40222794 -0.4835748 -0.25029576 0.074735284 0.41525036 -0.34653282 -0.43325025
0.101955 0.37376165 0.32395768 0.20049596 -0.31864822 0.11486173 -0.33538854 0.31373084
-0.42678797 0.013855457 0.14128697 0.11811042 -0.21432126 -0.16079158 0.3743447 -0.15061897
-0.30811226 -0.40588278 0.35223818 -0.40053594 0.36893225 -0.18319339 0.06336439 0.44630462
-0.43168598 0.1896134 -0.29172593 -0.11423373 0.16221845 -0.38057452 0.28110617 -0.4043215
-0.3586251 -0.15350026 -0.047196746 -0.38783932 -0.113061786 -0.2362606 0.115300655 0.37919682
0.4170645 0.27122235 -0.3831913 -0.064317405 0.48509973 -0.1004796 0.17992187 -0.29993606
-0.35065478 0.2964102 0.06369752 0.38931912 -0.06584519 0.46224356 0.047205925 -0.10372001
0.15062124 0.14259714 0.20527667 -0.35852492 0.4298206 0.30953217 0.018613696 -0.086597085
0.26821655 -0.2577899 0.22708195 -0.25421262 0.12100834 -0.34769952 0.021022499 0.28019303
-0.31922168 0.051999092 0.29598814 -0.29806125 -0.20951515 -0.046066284 0.4909655 -0.43129277
0.113047004 0.30051047 0.019239247 -0.460163 0.41414392 -0.07629484 -0.18492746 -0.15784788
0.24531215 -0.4366917 0.19504172 -0.011462927 -0.030716777 -0.114558935 -0.09993553 0.011249542
0.42877632 -0.37239712 -0.44416058 -0.3533935 -0.28518808 -0.44058675 0.036918223 0.2615686
0.35255808 -0.008982658 -0.015477955 0.37596375 0.20589435 0.36220402 -0.47033316 -0.49783432

weight_hh_l0 f4 [16, 4]
00000000: d4a4 4ebe dacc dabe 2cd1 b73e 1045 e7be
00000010: f096 d53e cc79 8a3e ae97 b03e 44cb 5fbe
00000020: 2c6f f4be b4d8 b23e 8ccd 1f3e 784b bd3d
00000030: 8858 ecbe ace1 65be f418 db3e 18d3 cdbd
00000040: 4c4e a03e 6012 fe3d 7689 f6be 1013 023e
00000050: 80ec f23d f669 8cbe b8b3 663e aca1 0fbe
00000060: 4c1d 503e 041a 9a3e 4496 53be 6ca8 97be
00000070: 8ce5 84be 502f 293e 0c0d b3be 746c 7c3e
00000080: 3abe b2be c47e 0abe 7696 c63e 4c03 c13e
00000090: f4d6 f3be e6fd dabe 3c9b ebbe 8818 f3be
000000a0: 3e1a fb3e a8d3 d43d 8841 b13e d01c 453d
000000b0: 363f c3be 58df 8f3e 4404 a63e 2c73 683e
000000c0: ca6d c6be 6e29 8e3e 18dd d83e 1ec8 8cbe
000000d0: 3cbc 933e c040 d63e 48c7 e0be 7e38 c1be
000000e0: 5061 38bd 1422 d73e aeb6 de3e 3838 253e
000000f0: c085 60bd 2026 7e3d d07d cdbd 2ce3 0abe
-0.20180064 -0.42734414 0.35901773 -0.45169878 0.4171672 0.2704605 0.34490722 -0.21854883
-0.47741067 0.34930956 0.15605754 0.0924291 -0.46161294 -0.22449368 0.42792475 -0.100500286
0.31309736 0.124058485 -0.4815175 0.12702584 0.11861515 -0.27424592 0.22529495 -0.14026517
0.20323676 0.30097973 -0.2066279 -0.29620683 -0.2595638 0.16521955 -0.3497089 0.24650747
-0.34910756 -0.1352492 0.38786668 0.37697828 -0.47624934 -0.42771834 -0.46016872 -0.47479653
0.4904346 0.10391933 0.3462031 0.04812318 -0.38134164 0.28100085 0.3242513 0.22700185
-0.38755637 0.27765983 0.4235618 -0.27496427 0.2885455 0.41846275 -0.4390204 -0.37738413
-0.04501468 0.42018187 0.4349875 0.16134727 -0.054815054 0.062048078 -0.100337625 -0.13563222

bias_ih_l0 f4 [16]
00000000: b8e6 743e 1435 6cbe c877 a13e 4072 5b3e
00000010: d854 dc3e 54b9 f8be 3a58 abbe 8487 17be
00000020: ac59 14be 2056 d2be 4068 7abe b81a 8e3e
00000030: 30f8 1e3e 84ce 1a3e 38d1 bd3d d0b3 abbd
0.23916137 -0.23067123 0.31536698 0.21430302 0.4303348 -0.48578894 -0.3346575 -0.14797789
-0.14487332 -0.41081333 -0.2445383 0.2775476 0.15524364 0.15117842 0.09268421 -0.08383906

bias_hh_l0 f4 [16]
00000000: ce55 f0be 9086 e6bd 4c93 9cbe acd2 cd3e
00000010: acbf 14be 9e0d a23e 40b3 083e 4094 bd3e
00000020: 7c1f a2be 20e2 c9bc cefb 9fbe ec3c d0be
00000030: ae44 abbe 0e2d aa3e e4ce 86be 7073 6dbe
-0.46940464 -0.112561345 -0.3058113 0.40199792 -0.14526242 0.31651014 0.13349628 0.37027168
-0.31664646 -0.024643958 -0.312468 -0.4067148 -0.33450836 0.332375 -0.2632972 -0.23188567
